shank_ai_v1.pth (torch, 44679 bytes, 11 tensors)

fc1.weight f4 [128, 8]
-0.048532307 -0.014767961 -0.23970471 0.18230097 -0.10556879 -0.21291336 0.043806884 -0.17037745
0.17636581 -0.083129644 -0.20493403 -0.14060934 0.13918161 -0.10931506 -0.19554861 -0.34057906
0.057574026 0.042238053 0.3433718 -0.17284396 -0.003945324 0.13011217 0.26423386 0.20051886
-0.066918574 0.08025211 -0.2148189 -0.11558769 0.2161891 0.23617226 0.044165134 -0.2830465
0.18074995 -0.22041693 -0.2890878 0.3231931 -0.22202227 0.3247496 -0.31476253 0.31581458
-0.2867584 0.1340381 0.2489243 0.26707533 -0.13496761 0.034423016 -0.3024516 0.040695775
-0.23128378 0.32345223 -0.19694088 -0.09132025 0.09781221 0.33608726 0.18938534 0.2299558
-0.1871841 -0.012604352 -0.27140573 -0.28723848 -0.3248142 -0.3232064 0.16256984 -0.22401011
0.003970486 0.31427962 -0.008459294 0.30305028 -0.094650485 0.15138878 0.0068368088 -0.079431385
0.27169338 0.17619263 0.19449106 0.18283264 -0.07317767 0.047578987 -0.20365584 0.10985239
0.32273194 -0.31237048 -0.31098494 0.14666425 -0.07980442 -0.021042405 -0.23096742 -0.20906915
-0.062007748 -0.048674215 0.036335304 0.03887739 0.22257839 0.062489107 -0.18725705 0.14186803
-0.28416476 -0.2154946 0.26837468 -0.1701778 -0.05860039 0.18766639 -0.25185043 0.11001946
-0.2704156 -0.27279374 0.06399982 -0.2487244 0.0016284278 -0.33897436 0.056551673 0.3233201
-0.21518588 0.104409076 0.21500309 -0.18791552 0.061351858 0.13873035 0.09635739 -0.15729637
-0.34587255 -0.039043114 0.3465185 -0.26333708 -0.10009868 0.15681595 0.046964105 -0.022828039
0.14115342 -0.22887824 -0.21758783 0.08697209 -0.2964313 -0.122068524 0.046306785 -0.27809447
0.3049396 0.07376394 -0.29329535 -0.13803852 -0.24552575 -0.07455073 -0.093574345 -0.10835824
-0.19785112 -0.325014 0.23018716 0.105125576 -0.12563297 0.1924919 -0.192596 -0.22117966
0.040218335 -0.22351763 -0.010123167 0.18109608 0.26380843 0.24268787 -0.23300783 -0.11182536
-0.05238208 0.27369037 0.035131842 0.16042843 0.2494326 -0.33886108 0.016937722 0.10573936
0.16656817 0.15039116 -0.18054298 -0.02719618 -0.14221716 -0.22431926 0.0016292286 -0.1955009
0.2623287 -0.04859995 -0.006357557 0.35075796 0.03782983 -0.30076793 0.0052926326 -0.3112468
0.17396942 -0.20287073 -0.16270496 0.3295688 -0.32899773 -0.038285397 -0.12386516 -0.20195618
-0.34388813 0.019491652 -0.030002235 0.27029747 -0.086366646 -0.034064177 0.34430093 0.10237963
0.18172203 0.15620187 0.03639254 -0.09601098 0.28268695 0.27565774 0.2214663 -0.25120264
-0.053754512 0.03146671 -0.07690919 -0.06644931 -0.33947474 -0.09536791 0.020813588 -0.29350513
-0.21210279 0.01764385 -0.23602429 -0.24884851 0.33101135 0.31901515 -0.31667227 0.24106471
-0.33060557 0.07188229 0.019942751 0.077710316 -0.22538225 0.23792772 -0.14153248 -0.033434547
0.0010977989 0.027022704 0.30884832 -0.20169619 0.11516753 -0.26902285 0.35042644 0.18567461
-0.34368318 0.20365918 -0.1602985 0.34163168 -0.14877787 -0.15438977 -0.086084686 0.21835987
0.2425571 0.27941298 -0.2378913 -0.29067582 0.1258399 0.34704232 -0.35330987 -0.09365725
00000000: d0c9 46bd 51f5 71bc 2775 75be 1bad 3a3e
00000010: 7334 d8bd f605 5abe d96e 333d 6d77 2ebe
00000020: 3d99 343e e03f aabd 3ada 51be e5fb 0fbe
00000030: a085 0e3e 93e0 dfbd e53d 48be 6160 aebe
00000040: bed2 6b3d cf01 2d3d 6ece af3e 02fe 30be
00000050: c747 81bb 203c 053e a949 873e d154 4d3e
00000060: 9b0c 89bd 385b a43d 7cf9 5bbe 3db9 ecbd
00000070: ad60 5d3e 24d7 713e 80e6 343d 79eb 90be
00000080: 8416 393e fab4 61be 5103 94be 9179 a53e
00000090: ce59 63be 9445 a63e 8e28 a1be 73b2 a13e
000000a0: ffd1 92be 4941 093e 03e6 7e3e 19be 883e
000000b0: f334 0abe 26ff 0c3d f0da 9abe 9db0 263d
000000c0: a8d5 6cbe 889b a53e dfaa 49be 1c06 bbbd
000000d0: c551 c83d a113 ac3e 3bee 413e 8979 6b3e
000000e0: 30ad 3fbe 7c82 4ebc b1f5 8abe ec10 93be
000000f0: 0c4e a6be 4f7b a5be b578 263e e862 65be
00000100: da1a 823b 42e9 a03e da98 0abc 6829 9b3e
00000110: 1dd8 c1bd a905 1b3e 4f07 e03b ecac a2bd
00000120: 651b 8b3e d76b 343e aa28 473e 7b38 3b3e
00000130: 2dde 95bd 2fe2 423d 288b 50be 4afa e03d
00000140: 1f3d a53e 06ef 9fbe 6b39 9fbe 272f 163e
00000150: 8070 a3bd 1f61 acbc b982 6cbe 3916 56be
00000160: d6fb 7dbd 9d5e 47bd 54d4 143d e63d 1f3d
00000170: 97eb 633e 94f4 7f3d 50c0 3fbe da45 113e
00000180: 0b7e 91be 9eaa 5cbe 6868 893e 1743 2ebe
00000190: f606 70bd 9e2b 403e 8af2 80be e251 e13d
000001a0: ea73 8abe 9fab 8bbe 5612 833d 9cb1 7ebe
000001b0: f870 d53a 0c8e adbe baa2 673d 368a a53e
000001c0: b059 5cbe 6dd4 d53d c529 5c3e ed6c 40be
000001d0: 164c 7b3d 540f 0e3e 0657 c53d 4d12 21be
000001e0: 3516 b1be aceb 1fbd df6a b13e 1ed4 86be
000001f0: 8900 cdbd 5c94 203e 6f5d 403d de01 bbbc
00000200: 868a 103e 0f5f 6abe 58cf 5ebe 6c1e b23d
00000210: d8c5 97be 10ff f9bd 2fac 3d3d 6662 8ebe
00000220: 0b21 9c3e 8c11 973d cf2a 96be f859 0dbe
00000230: 1a6b 7bbe 0eae 98bd e8a3 bfbd edea ddbd
00000240: 7c99 4abe 3c68 a6be 2fb6 6b3e 144c d73d
00000250: eea5 00be 991c 453e e337 45be ec7c 62be
00000260: fbbb 243d cee1 64be a4db 25bc 4071 393e
00000270: e611 873e 2b83 783e 9b99 6ebe b204 e5bd
00000280: 988e 56bd 2521 8c3e 68e6 0f3d 5a47 243e
00000290: 426b 7f3e 337f adbe fac0 8a3c e18d d83d
000002a0: d990 2a3e 2400 1a3e 42e0 38be 86ca debc
000002b0: 60a1 11be f3b3 65be d78b d53a 6331 48be
000002c0: f34f 863e be10 47bd 0e53 d0bb 8c96 b33e
000002d0: 74f3 1a3d 41fe 99be d26d ad3b be5b 9fbe
000002e0: 0a25 323e 58bd 4fbe 219c 26be 3ebd a83e
000002f0: 6472 a8be 26d1 1cbd 04ad fdbd 9acd 4ebe
00000300: 1b12 b0be f5ac 9f3c 3fc7 f5bc 6e64 8a3e
00000310: ffe0 b0bd e186 0bbd 3648 b03e 69ac d13d
00000320: 5715 3a3e 62f3 1f3e 5810 153d 68a1 c4bd
00000330: 58bc 903e 0323 8d3e 10c8 623e a29d 80be
00000340: b12d 5cbd 3de3 003d 9182 9dbd 9316 88bd
00000350: a2cf adbe 4050 c3bd 4281 aa3c 4e46 96be
00000360: 7931 59be d689 903c 5ab0 71be 25d2 7ebe
00000370: 527a a93e f455 a33e de22 a2be abd9 763e
00000380: 2245 a9be 0637 933d fb5e a33c 9626 9f3d
00000390: 9bca 66be 53a3 733e e4ed 10be aaf2 08bd
000003a0: 05e4 8f3a b85e dd3c 5e21 9e3e 7289 4ebe
000003b0: f4dc eb3d 5dbd 89be 186b b33e 7c21 3e3e
000003c0: 3ef7 afbe 088c 503e 4a25 24be 59ea ae3e
000003d0: 3a59 18be 5a18 1ebe 2b4d b0bd bb99 5f3e
000003e0: e360 783e 380f 8f3e c799 73be 76d3 94be
000003f0: 2ddc 003e 88af b13e 08e5 b4be 5fcf bfbd

fc1.bias f4 [128]
0.071362495 -0.038618144 0.22886218 -0.29357758 -0.316161 -0.05961208 0.28986573 -0.02292544
0.2947072 0.23452735 0.24567756 -0.2707584 -0.26571518 0.136867 0.34685826 -0.16988564
-0.33568367 0.30298734 -0.025253506 0.08506427 -0.14675719 0.06764734 0.059265044 -0.27449718
-0.20466733 0.00900008 -0.25584984 -0.21301788 -0.2294251 -0.34649917 -0.15803213 -0.082238786
-0.18600479 -0.20362264 -0.039670255 0.272019 -0.05646468 0.1524521 0.0035805854 0.21630563
0.0877043 0.32922807 -0.0877867 0.1920008 0.2501487 0.060411185 -0.02288578 -0.30586466
0.1991192 0.28792408 0.11864957 0.060703557 0.15658359 -0.20619561 0.2357927 0.11948121
0.066303566 -0.26775324 -0.09893087 0.22277386 -0.10440693 -0.116685785 -0.24451275 0.0025194543
0.14861749 0.24275324 -0.0048092506 0.05478049 0.014506692 0.27264887 0.20279369 -0.12848045
-0.33497915 0.126101 0.188968 0.29919732 0.060007922 0.074469306 0.14656465 -0.031078832
-0.029847302 -0.35160252 -0.19653092 0.06946943 -0.3453004 -0.003454735 0.04251854 -0.08948159
-0.17301112 -0.2926415 0.12823115 -0.2749491 0.08821997 -0.21001281 0.06996069 -0.18715169
0.04143052 -0.2220446 0.06526646 0.0928122 -0.33790454 0.13876812 0.0677924 -0.30889133
0.23172219 0.3420515 -0.22238776 0.029852401 -0.0072992863 -0.3046687 -0.3233574 -0.30790123
-0.17663175 0.23195155 -0.08193916 -0.20979251 0.29907724 -0.34639 0.031151325 0.23196074
-0.08369391 -0.025466684 0.34083253 -0.062015336 -0.34169495 -0.23196176 0.07214537 -0.08591471
00000000: 8026 923d 0f2e 1ebd d95a 6a3e cd4f 96be
00000010: dbdf a1be cc2b 74bd 4869 943e 22ce bbbc
00000020: dde3 963e f027 703e e692 7b3e d8a0 8abe
00000030: d20b 88be dd26 0c3e 6897 b13e 80f6 2dbe
00000040: bbde abbe 2821 9b3e 71e0 cebc 2d36 ae3d
00000050: 8447 16be b08a 8a3d e7bf 723d e58a 8cbe
00000060: 5094 51be 1275 133c c0fe 82be 5c21 5abe
00000070: 6aee 6abe 5768 b1be 2dd3 21be cf6c a8bd
00000080: 0a78 3ebe 7482 50be 477d 22bd 1346 8b3e
00000090: 8247 67bd 671c 1c3e 41a8 6a3b 397f 5d3e
000000a0: 509e b33d 9590 a83e 83c9 b3bd dc9b 443e
000000b0: 7e13 803e b871 773d f67a bbbc 4b9a 9cbe
000000c0: e7e5 4b3e c96a 933e 8cfe f23d 4ba4 783d
000000d0: 7357 203e f124 53be a473 713e 91b2 f43d
000000e0: 2aca 873d f416 89be 459c cabd d51e 643e
000000f0: 4dd3 d5bd f5f8 eebd 8d61 7abe 6e1d 253b
00000100: 2f2f 183e 4e94 783e eb96 9dbb 8261 603d
00000110: 7aad 6d3c a298 8b3e 26a9 4f3e 6190 03be
00000120: 6382 abbe 9f20 013e d480 413e 6430 993e
00000130: deca 753d 5d83 983d 0b15 163e 0999 febc
00000140: 5482 f4bc 3f05 b4be 673f 49be fd45 8e3d
00000150: 37cb b0be d668 62bb ec27 2e3d 2042 b7bd
00000160: d429 31be 1bd5 95be 074f 033e 21c6 8cbe
00000170: acac b43d 990d 57be 8d47 8f3d b1a4 3fbe
00000180: 0db3 293d a95f 63be 6caa 853d 5314 be3d
00000190: d301 adbe 3b19 0e3e bed6 8a3d 0127 9ebe
000001a0: 9548 6d3e 6021 af3e 9eb9 63be 068d f43c
000001b0: da2e efbb 89fd 9bbe 1a8f a5be 3ba5 9dbe
000001c0: f4de 34be b584 6d3e b8cf a7bd d9d3 56be
000001d0: a720 993e 085a b1be 1031 ff3c 1e87 6d3e
000001e0: b667 abbd 829f d0bc 9a81 ae3e cb03 7ebd
000001f0: a4f2 aebe 6287 6dbe f4c0 933d 0df4 afbd

fc2.weight f4 [64, 128]
-0.067982 0.025417427 -0.06518615 -0.00220467 0.054873437 -0.005454287 -0.064126976 -0.0027654234
0.08395038 -0.035509687 0.037472025 -0.043212067 0.04858105 -0.056468904 -0.021528367 0.028403446
-0.053410225 0.072274946 -0.08196594 0.062478043 -0.04322051 -0.013165411 -0.03760541 -0.05399691
0.010664322 0.08538525 -0.07971561 -0.06960513 0.021326536 0.061097935 0.031140326 -0.04245295
-0.07007078 0.07556501 -0.07918599 -0.07126232 0.055977758 0.07316886 -0.048306473 0.05850976
-0.052013665 0.03339353 -0.020407451 -0.016097229 -0.021087343 0.048058018 0.06808587 -0.017932862
-0.014399808 -0.06240943 -0.016437344 -0.08170515 0.058827948 -0.081146084 0.016327204 0.08385892
-0.038469378 -0.07508813 0.029116202 -0.06933365 -0.048694868 -0.08339118 0.0029007148 -0.068613164
0.003423209 -0.03914221 0.014080408 0.03796589 0.07686818 0.012958691 0.037842296 -0.011696551
0.03865142 0.084007405 0.07092659 -0.055808 0.0081280405 -0.026727613 -0.017395005 0.025329802
0.009197422 -0.027488343 -0.013795728 -0.031552225 0.058657274 0.07538962 -0.067254975 -0.067459635
0.05835133 0.0010023258 -0.019011252 -0.018221252 0.01484 0.028138828 -0.014624829 0.060608633
-0.034906 0.08406885 -0.07404891 0.06533736 0.06227343 -0.0068873954 0.043526873 0.050660186
0.0638715 -0.07735716 0.05143223 -0.066467464 -0.040873464 -0.033532284 0.001829563 -0.075475805
-0.014398553 0.06507848 -0.0013801407 -0.07544616 0.04405922 -0.073572226 -0.08088023 -0.04694987
0.04220815 0.0840843 0.031668257 0.088211045 -0.048965376 0.010423284 0.030029893 0.026708247
0.04517358 -0.010851581 0.03441715 -0.057783604 -0.038266554 0.0061429664 -0.042212386 -0.0811052
-0.017971605 0.04976335 0.0695319 -0.01604775 -0.02628212 -0.08377297 0.02309426 -0.037083916
-0.064353526 0.051850107 -0.022281079 -0.009311082 0.0556496 0.002524554 -0.07047813 -0.067574106
0.0413991 0.07574377 -0.0044107097 0.010912968 -0.0004545116 -0.05445432 0.030805532 -0.012302802
0.020786477 -0.021852277 0.01907227 -0.0465468 0.079165235 0.08041042 -0.0539387 0.066470034
0.036402274 0.021937024 -0.0688208 0.056812897 0.0045456323 0.064844504 -0.013104562 0.051638108
0.022709828 -0.055759743 -0.07884731 0.078430764 -0.077049345 -0.03156461 -0.012670849 -0.016917882
0.05122981 0.030788621 -0.0063199094 0.017570926 -0.006902621 0.007764208 -0.04262433 -0.009929923
-0.051899713 -0.054976325 -0.08445175 0.058572024 -0.0030089372 0.027968269 -0.04007963 -0.033864338
0.036118057 0.082477875 0.01056966 -0.009900611 0.028709527 0.00024718072 0.07427569 -0.004124554
0.061324168 -0.017135443 0.032646824 0.044704128 -0.06361149 0.040837914 0.0876426 0.04302524
-0.016887326 0.025174849 0.062345114 0.06599837 0.024424689 0.036030255 0.06927176 0.01256014
0.006902874 -0.07358439 0.009180068 -0.06166693 0.024111105 -0.02285221 0.036624875 -0.043940723
0.024761062 -0.015941076 -0.05362525 -0.0012645635 0.027022999 0.046830975 0.031088937 -0.046727736
-0.029151816 0.068776354 -0.061851375 0.07841543 0.01871577 -0.052444883 -0.022663234 -0.030175805
0.06339922 0.08020592 0.067320056 0.037357416 -0.01897646 -0.03405199 -0.08236839 0.065113015
00000000: 263a 8bbd 3538 d03c 5180 85bd 3a7c 10bb
00000010: f8c2 603d e0b9 b2bb 0155 83bd 1b3c 35bb
00000020: 2dee ab3d 9b72 11bd 447c 193d 23ff 30bd
00000030: ecfc 463d f04b 67bd 425c b0bc 58ae e83c
00000040: aec4 5abd e304 943d c2dd a7bd fae8 7f3d
00000050: fd07 31bd bcb3 57bc 2108 1abd dd2b 5dbd
00000060: 69b9 2e3c 76de ae3d f041 a3bd 228d 8ebd
00000070: fdb4 ae3c d441 7a3d ff19 ff3c 25e3 2dbd
00000080: 4581 8fbd d4c1 9a3d 442c a2bd fbf1 91bd
00000090: ef48 653d 8ed9 953d 02dd 45bd eea7 6f3d
000000a0: 480c 55bd a7c7 083d 872d a7bc 56de 83bc
000000b0: 5dbf acbc 7cd8 443d 9b70 8b3d f0e7 92bc
000000c0: 2ced 6bbc 08a1 7fbd 9ca7 86bc 0855 a7bd
000000d0: 93f5 703d eb2f a6bd a1c0 853c 3abe ab3d
000000e0: 1192 1dbd cec7 99bd 1a85 ee3c cdfe 8dbd
000000f0: 4574 47bd ffc8 aabd eb19 3e3b 0f85 8cbd
00000100: eb57 603b 9553 20bd 83b1 663c 1f82 1b3d
00000110: 106d 9d3d b150 543c 8600 1b3d e4a2 3fbc
00000120: f450 1e3d 130c ac3d f641 913d ee96 64bd
00000130: 792b 053c def3 dabc f87f 8ebc 7280 cf3c
00000140: c9b0 163c 3c2f e1bc 7a07 62bc e83c 01bd
00000150: 9c42 703d e065 9a3d fabc 89bd 4728 8abd
00000160: ce01 6f3d 7960 833a 7cbd 9bbc bc44 95bc
00000170: 7923 733c 6683 e63c fb9c 6fbc c240 783d
00000180: 98f9 0ebd 4a2c ac3d f4a6 97bd 98cf 853d
00000190: 6d12 7f3d a9af e1bb 3c49 323d 0e81 4f3d
000001a0: 10cf 823d 6e6d 9ebd 9aaa 523d 1820 88bd
000001b0: ef6a 27bd 2659 09bd f3cd ef3a 0f93 9abd
000001c0: e9e7 6bbc de47 853d d6e5 b4ba 8483 9abd
000001d0: 7177 343d 09ad 96bd 89a4 a5bd 824e 40bd
000001e0: 74e2 2c3d 6434 ac3d 93b6 013d fea7 b43d
000001f0: eb8f 48bd 6cc6 2a3c 4001 f63c 41cb da3c
00000200: ef07 393d d4ca 31bc fff8 0c3d 80ae 6cbd
00000210: 64bd 1cbd f04a c93b e5e6 2cbd 7c1a a6bd
00000220: 3039 93bc a8d4 4b3d be66 8e3d 9276 83bc
00000230: 9a4d d7bc 2a91 abbd 2c30 bd3c 4ee5 17bd
00000240: c8cb 83bd c760 543d cf86 b6bc 828d 18bc
00000250: d6f0 633d fd72 253b d656 90bd 4b64 8abd
00000260: 1a92 293d 8d1f 9b3d b787 90bb 4ecc 323c
00000270: 844b eeb9 7e0b 5fbd e25b fc3c b191 49bc
00000280: 6748 aa3c 8c03 b3bc 733d 9c3c dba7 3ebd
00000290: 6221 a23d 38ae a43d d4ee 5cbd 7121 883d
000002a0: 8d1a 153d 46b5 b33c ebf1 8cbd a4b4 683d
000002b0: 87f3 943b 32cd 843d 84b4 56bc 7b82 533d
000002c0: f609 ba3c 5464 64bd b37a a1bd 4fa0 a03d
000002d0: 0ccc 9dbd e449 01bd 6599 4fbc 5f97 8abc
000002e0: 59d6 513d 6b38 fc3c 3e17 cfbb e7f0 8f3c
000002f0: 622f e2bb e66a fe3b d996 2ebd 1eb1 22bc
00000300: cb94 54bd db2e 61bd 0af5 acbd 38e9 6f3d
00000310: 9731 45bb b61d e53c 8a2a 24bd 55b5 0abd
00000320: 87f0 133d 29ea a83d 5e2c 2d3c 2c36 22bc
00000330: 3e30 eb3c 0998 8139 da1d 983d 4427 87bb
00000340: 0d2f 7b3d a15f 8cbc adb8 053d ad1b 373d
00000350: be46 82bd a845 273d f77d b33d 3c3b 303d
00000360: 4a57 8abc 7c3b ce3c 975d 7f3d 272a 873d
00000370: 4916 c83c 7694 133d 5ade 8d3d 0cc9 4d3c
00000380: 8131 e23b 6ab3 96bd ff67 163c 7696 7cbd
00000390: a784 c53c 8f34 bbbc f703 163d 30fb 33bd
000003a0: b6d7 ca3c dc96 82bc 26a6 5bbd b6bf a5ba
000003b0: 565f dd3c d6d1 3f3d 3aae fe3c 9565 3fbd
000003c0: cacf eebc 9eda 8c3d de57 7dbd 4598 a03d
000003d0: d151 993c 72d0 56bd 3fa8 b9bc 4033 f7bc
000003e0: 73d7 813d 0043 a43d 19df 893d 1704 193d
000003f0: 8574 9bbc 197a 0bbd c2b0 a8bd f959 853d

fc2.bias f4 [64]
0.004590382 -0.053920336 0.025460163 -0.055378765 -0.010684721 -0.05988457 -0.0033160297 0.035553828
-0.059728038 0.06516632 0.069346316 -0.006641026 -0.05614373 -0.069638476 -0.02725192 -0.08373085
0.038842082 0.061572574 0.0087927915 -0.08792927 0.024641175 0.04798937 -0.016903551 -0.041353453
0.012456438 0.031706188 -0.06963239 0.01040513 0.0040344754 0.08541342 -0.023203978 -0.022675741
0.061041478 -0.03408737 0.08421587 0.070519544 -0.06941412 -0.04488123 -0.053916093 0.02415814
-0.036244277 0.087772295 -0.051331036 0.036036387 0.08199408 0.082114175 0.008073345 -0.068261586
0.016152527 0.043294083 -0.0321018 0.00835105 0.028101673 -0.060784835 0.013450871 0.052527152
-0.088070914 0.07934473 -0.08464011 0.004720173 0.065829255 0.049063735 0.055064943 -0.0016319365
00000000: ea6a 963b 92db 5cbd d591 d03c d8d4 62bd
00000010: f80e 2fbc 8649 75bd bf51 59bb e4a0 113d
00000020: 63a5 74bd eb75 853d 7105 8e3d f79c d9bb
00000030: f8f6 65bd 9e9e 8ebd 6b3f dfbc 147b abbd
00000040: e018 1f3d 8633 7c3d a40f 103c 4314 b4bd
00000050: 4adc c93c 8090 443d 5179 8abc 3d62 29bd
00000060: 1616 4c3c 59de 013d 6d9b 8ebd 477a 2a3c
00000070: a233 843b 3bed ae3d 4516 bebc 7ac2 b9bc
00000080: a106 7a3d 339f 0bbd 5f79 ac3d 8d6c 903d
00000090: fd28 8ebd 61d5 37bd 1fd7 5cbd 4be7 c53c
000000a0: e174 14bd f6c1 b33d 7e40 52bd e49a 133d
000000b0: 83ec a73d 7a2b a83d 1046 043c bbcc 8bbd
000000c0: 4e52 843c 2355 313d 2d7d 03bd d8d2 083c
000000d0: 7b35 e63c 85f9 78bd 0b61 5c3c b626 573d
000000e0: 865e b4bd 7d7f a23d cb57 adbd aeab 9a3b
000000f0: 7dd1 863d 0ef7 483d c78b 613d b4e6 d5ba

actor_move.weight f4 [4, 64]
0.05427119 -0.008690536 -0.013428792 -0.103449255 -0.08602907 0.107023895 -0.049278587 0.056952745
-0.011259973 -0.10699506 0.07294813 0.0179362 -0.07674003 -0.009918362 -0.10828346 -0.028906286
-0.0631755 -0.01913397 -0.043916643 0.090969816 0.08625078 -0.076159164 0.073427305 -0.11823781
-0.0940001 -0.04694678 0.12031935 -0.076541185 0.09260923 -0.08092713 -0.0016860962 0.0988964
0.06462513 -0.10618356 -0.093830585 -0.03475924 -0.084389836 -0.03988932 0.033908278 0.08438736
0.08205409 0.044369727 0.09281878 -0.09344748 -0.040138885 0.1154058 -0.023999453 -0.090096265
0.11676569 -0.09425524 -0.06294651 -0.03696002 0.040702432 0.06285241 -0.06983809 0.054505795
0.120356366 0.117431924 -0.014088675 0.08668497 -0.08702816 0.048501194 0.013233095 0.10015562
-0.007928953 -0.06438199 -0.11277552 0.053341597 0.009802654 -0.08240545 -0.030672058 -0.09438585
-0.07111998 -0.040328234 -0.030606031 0.05225131 0.08083452 -0.03293565 -0.09600215 0.07928184
0.06960559 0.07880825 -0.04602875 0.12057808 0.007724285 0.04489921 -0.052612975 -0.102840826
-0.02493982 -0.008098885 -0.059485286 -0.10032594 0.03071247 0.01890035 0.068225 -0.031408772
0.08323334 -0.046291992 -0.09665176 0.07630372 -0.039242834 0.09132233 0.04803577 -0.12173669
-0.00037877262 0.005932793 0.11106114 0.046912357 -0.08682191 0.106160805 -0.08819699 -0.0020171553
0.059833348 0.101481065 0.12111145 0.047771245 0.0055447966 0.071266234 0.026704624 -0.05503492
-0.09713511 -0.047994494 -0.11530465 0.04008323 0.0069916546 0.07072583 0.037644982 -0.09780379
-0.07997985 0.09718439 0.106337756 -0.10742624 -0.07123986 -0.11206904 -0.09467021 -0.055364475
0.123672575 0.08086705 0.015373781 0.057622343 -0.022054061 0.019485801 0.07224287 -0.037295297
0.10528116 0.008927748 -0.08434561 -0.10407226 -0.07357223 0.09072514 0.015079454 0.124408826
0.04366578 0.11678073 0.07669181 -0.03573169 0.017768577 -0.1085154 0.08935742 0.10869284
-0.014184043 0.02726464 0.093616396 0.114531994 -0.003099203 -0.12337007 0.10315734 -0.07150501
0.004656613 -0.051521957 0.010620162 0.020056114 -0.09601441 -0.07876432 0.10736354 -0.10368636
0.014754906 0.11322796 -0.0060783774 0.07013884 -0.11788002 -0.04469639 0.028552353 0.04668805
0.06895444 -0.12094271 0.11234607 -0.08260718 -0.0875662 -0.10248014 -0.067319945 0.01727748
0.075797305 0.036430776 -0.05590561 0.09804481 -0.07516296 -0.05739203 0.04614377 -0.030323684
0.015705824 -0.06609261 -0.003362909 0.045795634 -0.111412525 -0.018127665 0.019683033 0.0809802
0.09978081 -0.07192543 0.058477506 0.06133087 -0.058080584 0.09086169 -0.0615187 -0.015187681
-0.060105994 0.124144405 0.05232148 0.04051803 0.10680257 -0.018496588 -0.10391177 -0.116630405
-0.089694336 0.0013291985 -0.021338373 0.103039265 0.005425319 0.10745016 0.11943568 0.013183087
-0.10329501 -0.01140286 0.09415777 0.016180828 -0.026802182 0.105112284 0.07862966 0.053946093
0.091742694 0.07151106 -0.032424256 -0.09218116 0.02491796 -0.05129674 0.0015502572 -0.03455369
0.09149781 0.073504314 0.0139478445 0.10417439 -0.046553344 0.077510074 0.08709514 0.07939382
00000000: 784b 5e3d c062 0ebc 7004 5cbc 34dd d3bd
00000010: 0230 b0bd 582f db3d 58d8 49bd 4847 693d
00000020: c07b 38bc 3a20 dbbd d465 953d f0ee 923c
00000030: e029 9dbd a080 22bc b8c3 ddbd e0cc ecbc
00000040: 2862 81bd d8be 9cbc f0e1 33bd 624e ba3d
00000050: 40a4 b03d 56f9 9bbd 0e61 963d aa26 f2bd
00000060: 2083 c0bd 444b 40bd fe69 f63d a0c1 9cbd
00000070: e8a9 bd3d 20bd a5bd 0000 ddba 328a ca3d
00000080: 2e5a 843d c476 d9bd 402a c0bd b45f 0ebd
00000090: 94d4 acbd fc62 23bd 68e3 0a3d 48d3 ac3d
000000a0: fa0b a83d 08bd 353d c617 be3d 6461 bfbd
000000b0: ac68 24bd e059 ec3d 809a c4bc 6484 b8bd
000000c0: da22 ef3d e408 c1bd 1aea 80bd 6463 17bd
000000d0: 98b7 263d c4b8 803d 4607 8fbd 7841 5f3d
000000e0: 667d f63d 2680 f03d 30d4 66bc e487 b13d
000000f0: d23b b2bd 30a9 463d a0cf 583c 641e cd3d
00000100: 70e8 01bc b4da 83bd daf6 e6bd b87c 5a3d
00000110: 509b 203c 30c4 a8bd f843 fbbc 5e4d c1bd
00000120: 5aa7 91bd 382f 25bd 80b9 fabc 7805 563d
00000130: 928c a53d 88e7 06bd c69c c4bd 845e a23d
00000140: 608d 8e3d 3866 a13d a488 3cbd a4f1 f63d
00000150: 001c fd3b 3ce8 373d b480 57bd 369e d2bd
00000160: 984e ccbc 30b1 04bc d8a6 73bd b077 cdbd
00000170: b898 fb3c e8d4 9a3c 8cb9 8b3d 7ca6 00bd
00000180: 3e76 aa3d ac9c 3dbd 5cf1 c5bd 2045 9c3d
00000190: 18bd 20bd 3407 bb3d 28c1 443d 1651 f9bd
000001a0: 0096 c6b9 e067 c23b 0674 e33d 2c27 403d
000001b0: b0cf b1bd d66a d93d a0a0 b4bd 4032 04bb
000001c0: d013 753d 4ed5 cf3d 4809 f83d c8ab 433d
000001d0: 20b1 b53b 08f4 913d a8c3 da3c 4c6c 61bd
000001e0: c6ee c6bd e095 44bd d824 ecbd 502e 243d
000001f0: 401a e53b b4d8 903d a031 1a3d 5a4d c8bd
00000200: 7acc a3bd 9c08 c73d 9cc7 d93d 4a02 dcbd
00000210: 34e6 91bd 7484 e5bd 74e2 c1bd dcc5 62bd
00000220: 0c48 fd3d a09d a53d 50e2 7b3c 6805 6c3d
00000230: b8aa b4bc b0a0 9f3c 12f4 933d f4c2 18bd
00000240: a69d d73d b045 123c 64bd acbd d623 d5bd
00000250: 0aad 96bd 1ace b93d d00f 773c 0eca fe3d
00000260: e4da 323d bc2a ef3d 9810 9d3d 645b 12bd
00000270: 688f 913c 523d debd 0601 b73d 5a9a de3d
00000280: 3064 68bc 185a df3c f4b9 bf3d c08f ea3d
00000290: 001c 4bbb 72a9 fcbd 2844 d33d 3871 92bd
000002a0: 8096 983b b008 53bd 3000 2e3c b84c a43c
000002b0: 34a3 c4bd 304f a1bd 6ae1 db3d 8459 d4bd
000002c0: 90be 713c 10e4 e73d 202d c7bb f4a4 8f3d
000002d0: 146b f1bd 9013 37bd a0e6 e93c f83b 3f3d
000002e0: fc37 8d3d d0b0 f7bd b215 e63d f42d a9bd
000002f0: e855 b3bd 1ce1 d1bd 0adf 89bd 8089 8d3c
00000300: 9e3b 9b3d 7038 153d 48fd 64bd b8cb c83d
00000310: 0aef 99bd e813 6bbd 4001 3d3d 6069 f8bc
00000320: 80a9 803c 905b 87bd 4064 5cbb 3494 3b3d
00000330: 402c e4bd 7880 94bc 503e a13c f2d8 a53d
00000340: e259 cc3d a44d 93bd 1c86 6f3d 1436 7b3d
00000350: e8e5 6dbd b215 ba3d 08fb 7bbd c0d5 78bc
00000360: b431 76bd 6c3f fe3d 0c4f 563d 3cf6 253d
00000370: 4ebb da3d 2886 97bc b2cf d4bd ecdb eebd
00000380: aab1 b7bd 8038 ae3a d0cd aebc 4006 d33d
00000390: e0c6 b13b d40e dc3d b29a f43d e0fd 573c
000003a0: 568c d3bd 10d3 3abc cad5 c03d a88d 843c
000003b0: 4090 dbbc 1c45 d73d 9608 a13d 94f6 5c3d
000003c0: 98e3 bb3d 6474 923d 4ccf 04bd 7ac9 bcbd
000003d0: c020 cc3c 881c 52bd 0032 cb3a 2c88 0dbd
000003e0: 3463 bb3d 6e89 963d 8085 643c 6259 d53d
000003f0: b8ae 3ebd 9abd 9e3d f05e b23d 3a99 a23d

actor_move.bias f4 [4]
-0.025186568 -0.047691077 -0.034247085 0.10716653
00000000: 1054 cebc b857 43bd ac46 0cbd 207a db3d

actor_aim.weight f4 [2, 64]
-0.05397685 0.047247708 0.10588479 -0.018591493 -0.0005184859 -0.0044180006 -0.039938614 0.065713525
0.049319625 0.10538104 0.09874852 -0.081055164 0.08316542 0.025244161 0.053356603 0.006262839
-0.0264647 0.020655736 -0.07928637 -0.12229574 -0.017949924 -0.019993871 0.116760254 0.009998262
-0.03479317 -0.10766721 -0.06564988 -0.04276474 0.023116097 0.048310176 0.07013641 -0.043748155
0.021965638 0.12183824 -0.09229322 -0.10441971 0.009349644 -0.10205257 0.06772947 0.11842993
-0.11493051 -0.0015842468 0.014794752 0.08354665 0.11310457 -0.086006224 -0.06714401 0.00928624
-0.018621445 -0.021063074 0.02900888 0.038744375 0.04227534 -0.066045895 0.05011113 -0.04579507
-0.070788264 0.043745294 0.10181478 0.021024212 -0.028740376 0.10530603 0.021990672 0.09904726
0.09709631 0.06872101 -0.107116014 -0.009233594 0.057581633 -0.06940164 -0.010687351 0.004393697
-0.10842572 -0.12348327 -0.0661307 -0.010918871 0.11954123 -0.10805859 0.021199703 0.11381842
0.0930022 -0.017937228 -0.122285336 0.0035993904 0.10722005 -0.068032175 0.10487877 -0.12155202
0.084349096 -0.08839691 0.026987076 -0.033424035 -0.026290819 0.024109393 0.059295714 -0.016728297
0.123235434 0.066824004 0.0025541931 -0.09817232 -0.11590378 0.0066485256 -0.08774726 -0.081877604
-0.013493195 0.09211035 0.06636806 0.116118684 0.081785515 -0.03917533 0.09301326 -0.005971715
0.11822671 0.10937104 -0.031689733 -0.095349 -0.11234081 -0.06795414 0.009696409 0.01000078
0.0007598251 0.06568855 0.015311599 -0.08841996 -0.1054879 -0.105462864 0.08272539 -0.109543845
00000000: d416 5dbd d086 413d 20da d83d 304d 98bc
00000010: 00eb 07ba e0c4 90bb ac96 23bd d094 863d
00000020: 6003 4a3d 04d2 d73d aa3c ca3d 4000 a6bd
00000030: a252 aa3d d8cc ce3c 748c 5a3d 8038 cd3b
00000040: 80cc d8bc 3836 a93c e460 a2bd 3076 fabd
00000050: b80b 93bc 30ca a3bc 0020 ef3d c0cf 233c
00000060: 4883 0ebd a080 dcbd 7273 86bd 142a 2fbd
00000070: f85d bd3c e4e0 453d aea3 8f3d 4431 33bd
00000080: 48f1 b33c 5486 f93d 3a04 bdbd 00da d5bd
00000090: 402f 193c f000 d1bd c0b5 8a3d 648b f23d
000000a0: b060 ebbd 80a6 cfba b065 723c 821a ab3d
000000b0: 5ea3 e73d 0824 b0bd cc82 89bd 5025 183c
000000c0: 008c 98bc 788c acbc 08a4 ed3c 6cb2 1e3d
000000d0: e828 2d3d 1243 87bd 5441 4d3d 9c93 3bbd
000000e0: 70f9 90bd 442e 333d 4484 d03d f83a ac3c
000000f0: f070 ebbc b0aa d73d c825 b43c 4ad9 ca3d
00000100: 6eda c63d 9abd 8c3d a45f dbbd 8048 17bc
00000110: b8da 6b3d 7222 8ebd 001a 2fbc 00f9 8f3b
00000120: 4e0e debd cce4 fcbd 886f 87bd 10e5 32bc
00000130: 08d2 f43d d24d ddbd 00ab ad3c a219 e93d
00000140: f077 be3d 18f1 92bc bc70 fabd c0e3 6b3b
00000150: 3096 db3d 7454 8bbd aeca d63d 44f0 f8bd
00000160: 38bf ac3d 7009 b5bd 0014 dd3c a4e7 08bd
00000170: d85f d7bc 1081 c53c 10e0 723d c809 89bc
00000180: dc62 fc3d 06db 883d 4064 273b 920e c9bd
00000190: f65e edbd e0db d93b d6b4 b3bd 72af a7bd
000001a0: 9012 5dbc 5aa4 bc3d faeb 873d a2cf ed3d
000001b0: 2a7f a73d 5076 20bd bc7d be3d 60ae c3bb
000001c0: d820 f23d ecfd df3d 18cd 01bd 5646 c3bd
000001d0: f012 e6bd 8a2b 8bbd b0dd 1e3c 50da 233c
000001e0: 002f 473a b887 863d 80dd 7a3c 8615 b5bd
000001f0: 0a0a d8bd eafc d7bd ee6b a93d 8658 e0bd

actor_aim.bias f4 [2]
-0.076479346 0.060497984
00000000: 34a1 9cbd bccc 773d

actor_shoot.weight f4 [2, 64]
-0.076890334 -0.097032264 -0.111421004 -0.034222484 -0.082231 -0.118349165 0.0929274 -0.10161178
-0.075870216 -0.07284048 -0.061717033 0.016820714 0.011913627 -0.123531654 -0.07065402 -0.014696971
-0.04183671 -0.08910945 0.061805636 -0.06391458 0.03641261 -0.05279106 -0.023161754 0.0032127798
0.06583926 -0.0081532 -0.015579358 -0.076801464 0.11789599 -0.07679449 0.10015771 0.03438504
0.055089846 -0.06781417 0.05687818 0.08505604 0.0020243376 -0.0024337918 0.05161187 -0.03394191
-0.07334934 -0.024118632 0.08643122 -0.119160995 -0.063895285 -0.12413894 -0.12279652 -0.0896415
-0.109297335 -0.0045868605 -0.016129583 -0.034942657 0.0942795 0.075008914 0.066634804 -0.06972076
0.020078644 0.04304777 0.08300018 0.098646104 -0.03120239 -0.07912825 0.03169763 0.010405302
-0.039387926 -0.044206366 0.031200916 0.053451195 0.110257804 0.032947034 -0.080609605 0.070534036
-0.01296486 0.073116034 -0.091248915 0.06340146 -0.09786084 -0.06970605 0.04445827 -0.010173142
0.08117759 -0.10634433 -0.09535082 0.062186405 -0.12351574 0.0051171035 0.07499017 0.08265212
0.122232646 -0.1050099 0.12091489 0.015269756 0.0233396 -0.054588556 0.060932443 0.093838125
0.001815781 0.10692996 0.053018227 -0.064725146 0.05539483 0.04334955 -0.057869673 -0.11750175
-0.117212325 0.012558848 0.010247782 -0.036087826 0.054145247 -0.053572744 0.013758644 0.10393964
0.029834405 -0.013972789 0.08476682 -0.017346695 -0.07929343 0.009537131 0.036495596 -0.025370657
-0.02145116 0.07346548 0.10489221 -0.042769015 0.039127737 0.080936894 0.04151936 0.07225311
00000000: ae78 9dbd dab8 c6bd b230 e4bd e02c 0cbd
00000010: ba68 a8bd 0c61 f2bd b850 be3d d619 d0bd
00000020: d861 9bbd 642d 95bd 00cb 7cbd 98cb 893c
00000030: 6031 433c 2afe fcbd 0eb3 90bd 90cb 70bc
00000040: f85c 2bbd 047f b6bd e827 7d3d a6e5 82bd
00000050: 6425 153d 703b 58bd b8bd bdbc 808d 523b
00000060: bcd6 863d 0095 05bc 9040 7fbc 164a 9dbd
00000070: 7473 f13d 6e46 9dbd 7c1f cd3d 54d7 0c3d
00000080: e4a5 613d 28e2 8abd 18f9 683d dc31 ae3d
00000090: c0aa 043b 4080 1fbb f866 533d ac06 0bbd
000000a0: 2e38 96bd 7094 c5bc da02 b13d ae0a f4bd
000000b0: 88db 82bd 8e3c febd be7c fbbd f695 b7bd
000000c0: 48d7 dfbd 604d 96bb 3022 84bc 0820 0fbd
000000d0: 9c15 c13d 469e 993d d477 883d c2c9 8ebd
000000e0: f87b a43c dc52 303d 00fc a93d f806 ca3d
000000f0: 289c ffbc fe0d a2bd 60d5 013d 007b 2a3c
00000100: 3c55 21bd bc11 35bd 1099 ff3c a4ef 5a3d
00000110: d8ce e13d 78f3 063d a616 a5bd 2674 903d
00000120: 906a 54bc dcbd 953d b6e0 babd a0d8 813d
00000130: 446b c8bd 0cc2 8ebd e019 363d 40ad 26bc
00000140: 7040 a63d 0ecb d9bd 4a47 c3bd 2cb7 7e3d
00000150: d2f5 fcbd 60ad a73b 7294 993d 8445 a93d
00000160: 1c55 fa3d 6e0f d7bd 3aa2 f73d 002e 7a3c
00000170: b032 bf3c 4098 5fbd 4c94 793d 342e c03d
00000180: 80ff ed3a 18fe da3d a429 593d 9e8e 84bd
00000190: b0e5 623d 4c8f 313d c008 6dbd c2a4 f0bd
000001a0: 040d f0bd a0c3 4d3c 50e6 273c d4d0 13bd
000001b0: 68c7 5d3d 186f 5bbd f06b 613c 4ede d43d
000001c0: 4867 f43c 20ee 64bc 3a9a ad3d a81a 8ebc
000001d0: 9864 a2bd a041 1c3c 687c 153d 20d6 cfbc
000001e0: 58ba afbc 1275 963d bad1 d63d 902e 2fbd
000001f0: 6844 203d 3ec2 a53d 3410 2a3d 70f9 933d

actor_shoot.bias f4 [2]
-0.121038795 0.118584916
00000000: 30e3 f7bd a6dc f23d

critic.weight f4 [1, 64]
-0.104769066 0.0070557445 -0.043072417 -0.052578434 -0.0051133484 -0.026791453 -0.094064996 0.06945948
0.08944136 -0.007019356 0.012141719 0.060013026 0.08363958 0.01856941 -0.11152965 0.048535585
-0.10779554 0.12458797 -0.040092185 -0.015923932 -0.0630355 0.07222243 -0.10707834 0.04272081
-0.069439515 -0.05531755 0.023949668 0.04376763 0.041786775 -0.11726716 -0.117253736 0.086286545
-0.005480513 -0.114056066 0.013512328 0.10253553 0.07585503 -0.03840889 -0.071435526 0.10316305
0.093108475 -0.01907599 0.012721479 0.08657114 -0.10981268 -0.012974098 -0.07465656 0.0843163
-0.018387005 0.110055655 0.061883822 -0.08256732 -0.041544512 0.06525618 0.11988528 0.12106614
0.0706785 0.06612435 0.09761429 0.11236298 -0.053610563 -0.055707246 -0.1088724 0.1116167
00000000: 2a91 d6bd e033 e73b b46c 30bd 7c5c 57bd
00000010: e08d a7bb c079 dbbc 26a5 c0bd c640 8e3d
00000020: 082d b73d a002 e6bb 10ee 463c 38d0 753d
00000030: 3a4b ab3d e01e 983c a869 e4bd 40cd 463d
00000040: e8c3 dcbd fa27 ff3d b437 24bd e872 82bc
00000050: c218 81bd 5ae9 933d e44b dbbd 04fc 2e3d
00000060: 4e36 8ebd a894 62bd 1832 c43c b045 333d
00000070: 9c28 2b3d c429 f0bd ba22 f0bd 00b7 b03d
00000080: e095 b3bb 3a96 e9bd d062 5d3c 26fe d13d
00000090: e259 9b3d a452 1dbd ca4c 92bd 2647 d33d
000000a0: a8af be3d 4045 9cbc c06d 503c 364c b13d
000000b0: 78e5 e0bd 5091 54bc 8ae5 98bd 06ae ac3d
000000c0: 58a0 96bc dc64 e13d e479 7d3d 0e19 a9bd
000000d0: 942a 2abd 08a5 853d 6a86 f53d 86f1 f73d
000000e0: e4bf 903d 346c 873d 00ea c73d 901e e63d
000000f0: c096 5bbd 482d 64bd 7ef8 debd 4c97 e43d
